detect_number/mnist_net.pth (torch, 253844 bytes, 10 tensors)

conv1.weight f4 [6, 1, 3, 3]
000000 f7 6a dd 3d 06 1a a2 3e 17 92 f8 3e bd 35 bb be
       0.108114175 0.3166048 0.48548958 -0.36564437
000010 b0 e2 03 3f 57 93 8f 3e e9 30 5d 3e 45 34 13 3d
       0.5151777 0.280421 0.21600689 0.03593852
000020 bd 3a b7 3e 08 ef 25 be 60 18 50 3e 5c c5 03 3f
       0.35787 -0.16204464 0.20321798 0.5147302
000030 1a 70 0b bf 16 9d 71 3e 08 fc ed 3e b5 77 1b be
       -0.5446793 0.2359508 0.46481347 -0.15182383
000040 64 4f 20 3f a1 1f 10 3f 0d 65 08 bf 5a 10 29 bf
       0.6262114 0.5629826 -0.5327919 -0.66040576
000050 da b2 50 bf e6 41 39 bf 20 9e a9 be bb ac 51 bf
       -0.81522906 -0.7236618 -0.33128452 -0.8190419
000060 79 8f 30 bf 6f aa 1e bf 4f 95 bd be c2 5c da be
       -0.6896892 -0.6197881 -0.37027976 -0.42648894
000070 d0 78 c8 be 75 d2 1a 3e 5e 43 d7 3d 14 aa e2 3e
       -0.39154673 0.15119345 0.10510896 0.44270384
000080 3a b6 90 3e 5e 36 48 be 45 dd 50 3e 98 bc c8 bd
       0.28264028 -0.1955199 0.20396908 -0.098015964
000090 66 20 75 be 73 ba 16 bf b2 56 12 bf 37 ef 72 3d
       -0.2393814 -0.5887825 -0.57163537 0.059310164
0000a0 93 ea f7 be eb de 07 bf e9 8a 2d be 2c 4c 14 bf
       -0.48421153 -0.5307452 -0.16947521 -0.5792873
0000b0 c9 f9 0e bf 33 70 d4 bd 28 cc 44 be 6b 95 ea 3e
       -0.5584989 -0.10372963 -0.19218504 0.45817122
0000c0 45 3c 22 3e 21 b2 de 3e 37 d8 03 3f 53 f6 e3 3b
       0.15843304 0.43495277 0.5150179 0.0069568544
0000d0 79 ab 09 be bb 89 be 3e
       -0.13444318 0.37214455

conv1.bias f4 [6]
000000 5f b6 e2 3e 6c e5 ce 3e 1b 41 8d bc 6c cc c0 3e
       0.44279763 0.4040941 -0.017242959 0.37655962
000010 0a 2a 54 3e 35 91 15 3f
       0.20719162 0.58424693

conv2.weight f4 [12, 6, 3, 3]
000000 1c f7 32 bc f4 78 36 bd 9d 90 77 3e 5c 67 3a be
       -0.010923173 -0.044548944 0.2417626 -0.18203491
000010 98 09 0f 3e bf 36 b8 3d f6 32 1c 3d c9 e6 58 3e
       0.13968503 0.08994817 0.038134538 0.21181788
000020 81 2b 03 3e dd a2 ad bd b0 1f 57 3e 7a c8 8f 3e
       0.12809564 -0.08478329 0.21008182 0.2808264
000030 e3 81 25 be ff 5d 82 3e 05 1b 9f 3e 04 b8 8b 3d
       -0.16162829 0.25462338 0.31075302 0.068222076
000040 34 f9 9a 3e fa a1 93 3d 34 2e 5a 3e 2b 7b 96 3d
       0.30268252 0.07208629 0.21306688 0.07347711
000050 c1 91 90 be 5b 46 a7 3e 70 52 a7 3d 6d 09 ab be
       -0.282362 0.32670864 0.081700206 -0.3340563
000060 bc 01 3d 3e 54 c9 71 be 14 9e ac be 71 00 13 3c
       0.18457693 -0.23611957 -0.33714354 0.008972273
000070 75 e1 07 bd 67 2f 32 3e 6f a2 5a bd f3 2c 47 3d
       -0.033173997 0.17400895 -0.053377565 0.04862685
000080 31 3e 5b 3c d8 aa ec bd 8c e5 06 3e f6 93 aa bd
       0.013381527 -0.11556023 0.13173503 -0.083290026
000090 1f 92 4f 3e c5 ff 16 3e 3c 24 94 be 3d e1 ed 3d
       0.20270585 0.14746006 -0.28933895 0.116152264
0000a0 69 57 19 3b 84 1c 6c bd a1 d4 c2 3d ad 4d 76 be
       0.0023398048 -0.057644382 0.09513212 -0.24053068
0000b0 0c 1c 94 3c ac 09 49 be 3f 98 1d 3b 88 d8 a4 3d
       0.01807978 -0.19632596 0.0024047045 0.080491126
0000c0 33 7f ca bb 91 eb 0d 3e 86 ac 0f 3c 1b 8d ed bd
       -0.006179714 0.13859393 0.00876916 -0.11599179
0000d0 e7 84 3e 3e f5 4a f9 3d 52 ca 5f bd 24 00 e0 3d
       0.18605386 0.121725 -0.054636307 0.10937527
0000e0 f0 5e 51 3d 41 d2 e4 bd d0 72 0c 3e 57 5b c6 3d
       0.05111593 -0.11172915 0.13715672 0.096853904
0000f0 a4 53 75 3b 6c 71 77 3d a1 97 0f 3d ca 46 9d bd
       0.0037433887 0.060410902 0.035056714 -0.076795176
000100 e5 3d b5 3d 1c e3 89 3d 0f e3 91 bc 16 1a 61 3e
       0.08849696 0.06732771 -0.017808465 0.21982607
000110 ae d6 9a bd f7 29 34 3d df 90 3b 3e 93 5b 0c 3e
       -0.07560478 0.043985333 0.18316983 0.13706808
000120 74 26 16 be 0c 38 66 bd 34 af 3e 3e 49 08 ae 3c
       -0.14663106 -0.056205794 0.18621522 0.021244185
000130 f1 f2 fe bd 9c 05 55 bc c8 d2 b0 3d c6 a9 53 3d
       -0.12448681 -0.013001826 0.08633953 0.05167558
000140 a8 85 39 be 4b d2 0f 3e 7d aa 08 bc ff 1a c4 bd
       -0.18117392 0.14045064 -0.008341429 -0.095754616
000150 d2 a4 15 3d 3c 6f 06 bd 69 f7 9e bd de 76 1c bd
       0.036534138 -0.032820925 -0.077620335 -0.038199298
000160 27 c9 f1 bc 5d c0 e4 bd f6 12 ec bd 91 d5 e8 bd
       -0.029514862 -0.11169503 -0.11527054 -0.113688596
000170 8f 0c 22 3e 1e bc ec 3d cf 40 3c be a3 22 5d 3d
       0.15825103 0.11559318 -0.18384098 0.05398811
000180 41 e5 7f 3c a2 82 21 ba 6a 39 a8 bd 8c 81 0e 3e
       0.015618623 -0.00061611284 -0.08214076 0.13916606
000190 9b be 44 3d 6b 4f 05 bd be 45 be bc 2f 30 24 3e
       0.048033338 -0.032546442 -0.023226615 0.16034006
0001a0 74 69 33 bc 8c 71 cc 3c fa 1e 72 bd ce f1 5d 3c
       -0.010950435 0.024956487 -0.059111573 0.01354642
0001b0 d0 37 22 bd 8b 6d a6 bd a6 a3 e2 bd c6 99 83 3d
       -0.03960401 -0.081263624 -0.1106637 0.06425814
0001c0 36 44 5e be 1d 20 a7 bb f0 27 0e 3d 26 e3 11 3d
       -0.21705708 -0.0051002637 0.034706056 0.035617016
0001d0 9e bb 35 3e 23 88 41 bd fb aa 8d bd 01 ee 5a be
       0.17747352 -0.04724897 -0.069173776 -0.21379854
0001e0 22 df dd bd 42 c8 0e bd 62 e8 0e be 59 bf e3 3d
       -0.10833575 -0.03485895 -0.13955835 0.11120481
0001f0 ff 3f f3 bb 3f ff d9 3d 6d bd 6f 3e 62 1b 9b 3e
       -0.0074234004 0.106443875 0.23412104 0.3029433
000200 9d 86 5e 3e 7a 1f 1d 3d 5f f7 c0 3e 63 03 8e 3e
       0.21731038 0.038360097 0.3768873 0.2773696
000210 8f 6e ea be 03 bd 08 bf c4 27 e4 be 5c e0 1d 3e
       -0.45787475 -0.5341341 -0.4456159 0.15417618
000220 79 8e 01 3e 58 5f e5 3c 14 b6 9c 3d cb 32 b0 3d
       0.12652005 0.027999565 0.07651916 0.08603438
000230 c8 2a 0d 3e d6 7f 3a 3d 78 77 90 3e 21 b4 d4 3d
       0.13785851 0.04553207 0.28216147 0.10385919
000240 4f b3 59 3e c5 e9 b0 3d c2 b8 5a 3e 47 96 29 3e
       0.21259807 0.08638338 0.21359542 0.16561233
000250 c6 fc 32 3e 00 ad 32 3d ef bf b6 be 69 57 06 bf
       0.17479238 0.043622017 -0.3569331 -0.5247713
000260 3d 7d 57 be e0 ec eb 3c b7 85 0c 3d 5a fd de 3c
       -0.21043868 0.028799474 0.034307208 0.027220417
000270 72 77 74 bd ac af 09 be 70 ff c1 3d 6e 54 a1 3e
       -0.059684224 -0.1344592 0.09472549 0.31509727
000280 3a ac 9f 3e 04 85 14 3e ff a0 89 bd b5 85 49 3e
       0.31186086 0.14503866 -0.06720161 0.19679911
000290 37 b7 02 3d 1d b6 07 bd f6 c4 78 3e bd f3 34 3e
       0.03191301 -0.03313266 0.24293885 0.17671104
0002a0 1a ce c3 bb 7b f8 f9 3d 41 f9 0a 3e 0a 31 6c 3d
       -0.005975497 0.12205597 0.13571645 0.057663955
0002b0 25 a9 b8 3e ac 3d 04 3e 06 d7 53 3c e2 ac d4 3e
       0.36066547 0.12914151 0.012929684 0.4153815
0002c0 2b 81 62 3e 71 5f 4a 3e b2 d2 1e 3e f0 76 e1 3d
       0.22119586 0.1976297 0.15510061 0.11009014
0002d0 b4 a6 5a 3e d2 1b 98 be 79 59 5c be d6 52 14 3e
       0.21352655 -0.29708725 -0.21518506 0.14484724
0002e0 9f ec a5 be 8c 58 34 bc f2 d4 44 3d 02 a5 5c be
       -0.3240709 -0.011007439 0.048054643 -0.2154732
0002f0 7f 21 38 3d 92 b8 e8 3d b3 d4 80 bc 1d 1f 9e 3d
       0.04495382 0.11363329 -0.015726423 0.07720778
000300 5f b2 30 3e da bc 3e 3e e6 18 e0 3c 5e b1 82 3e
       0.17255543 0.18626729 0.027355623 0.25525945
000310 2b 2e 00 3e 2a 35 7d bd b4 4d d3 3d aa c8 ef bb
       0.12517612 -0.06181828 0.10317555 -0.007317622
000320 12 7d 8c 3d fe 6a 8e 3d 77 be f1 bd 1a 4a 35 3e
       0.06859793 0.06954001 -0.118039064 0.17704049
000330 73 cc 8c bd a5 84 aa bc d3 bd 0a 3e a6 d3 4f 3d
       -0.06874933 -0.020815203 0.13548975 0.050738953
000340 bd 1a 92 3e b1 92 02 3e b0 a6 fc 3d 02 1f 46 3e
       0.28536025 0.12751271 0.123364806 0.19347766
000350 83 d9 58 3b 64 14 39 3e 56 f2 ad 3c f5 2c db bc
       0.0033088631 0.18074185 0.021233719 -0.026754836
000360 71 9a f0 3d 73 26 a5 bd dc c7 9f 3d 7b 9f d9 bd
       0.11748207 -0.08063974 0.07801792 -0.106261216
000370 12 9b 11 bb 1d 2d f7 bd a1 ce 83 bd 1c 91 29 bd
       -0.0022217673 -0.120691516 -0.06435896 -0.041398153
000380 90 76 f2 bd 63 2c 23 bd aa bf 0c 3e 26 33 f4 bd
       -0.1183902 -0.039837252 0.13744989 -0.11923818
000390 60 00 d8 bd c4 43 f1 3c f4 52 bb 3c 61 18 0c bd
       -0.105469465 0.029451258 0.022866704 -0.034202937
0003a0 bd 97 ba 3d 0c ed 2f bc a0 f3 cb bd 32 7a 74 3d
       0.09110973 -0.010737669 -0.09958577 0.059686847
0003b0 e5 4e d6 bd aa 60 ae bc c8 56 df bd c8 45 d3 bd
       -0.10464267 -0.021286327 -0.10905224 -0.10316044
0003c0 a1 43 c9 3d 8a 81 f9 bd a6 39 f0 3d 73 4e a4 bd
       0.09827352 -0.12182911 0.117297456 -0.080227755
0003d0 d3 cd 67 3d b7 82 a5 bd 31 bd 8b 3c 32 8e 47 bd
       0.056592774 -0.080815725 0.017057987 -0.048719592
0003e0 03 ef 4a bd be 56 b7 bd b4 41 01 3e cc 83 c5 3d
       -0.049544346 -0.08952092 0.1262272 0.09644279
0003f0 28 87 01 bd 9f 27 25 bd f8 21 f1 bd 5a 31 a6 bc
       -0.031623036 -0.04032099 -0.11774057 -0.020287205

conv2.bias f4 [12]
000000 ce ab e2 bd 6e c4 2a 3c e5 1d 2d 3e 27 c1 9f 3c
       -0.110679254 0.010422809 0.16905935 0.019501282
000010 b2 dc bc bd d6 d2 ff bb a4 02 6c 3e 6f 68 d1 3d
       -0.09221782 -0.007807116 0.23047882 0.10224997
000020 74 16 a9 bc 62 81 dd 3d 7f b4 b9 3d c6 01 6f 3d
       -0.02064059 0.108156934 0.0906763 0.0583513

fc1.weight f4 [160, 300]
000000 3b 16 03 3d f5 f7 08 bd 22 38 ed 3b b8 21 63 3c
       0.032003623 -0.033439595 0.0072393576 0.01386302
000010 f0 d5 89 3c e5 f1 be bc 6a ea a4 bc e3 7d 32 3b
       0.016825646 -0.023308704 -0.020131309 0.002723568
000020 ce 2b 9a 3c 6d bc c7 bb 64 7f 79 3c 27 33 e5 bc
       0.018819716 -0.00609546 0.015228126 -0.027978493
000030 bb b3 32 bd d4 5a 82 bd 21 77 42 3b cf 7b e1 bc
       -0.043628436 -0.0636498 0.0029673057 -0.027524857
000040 01 68 2b bd 43 20 04 bb f2 b8 5a bb 59 3f 12 3d
       -0.041847233 -0.002016083 -0.0033374396 0.035704944
000050 36 16 cc 3c c3 3e 52 3d b3 fc 98 3c cf 83 58 bd
       0.024912935 0.051329385 0.018675184 -0.052860077
000060 07 05 77 3c 41 74 d3 bb 1e 71 47 3d 86 17 37 bc
       0.015076882 -0.0064530675 0.04869186 -0.011175042
000070 be 5c f1 3c 2f 4f 75 bd a9 38 5a 3d 48 b5 e3 3b
       0.029463168 -0.05988997 0.05327669 0.0069491006
000080 9b 70 31 bd 09 ac a0 3c 38 95 56 bd 6b 4e fe 3c
       -0.04332028 0.019613283 -0.0523884 0.031043252
000090 39 e2 6a 3d f2 48 a7 3c d2 58 4c bd 77 18 69 3d
       0.05734465 0.020420525 -0.049889393 0.056908097
0000a0 74 11 4f bd bd ec 08 3d 90 dd 4b 3d 07 23 7f 3d
       -0.050553754 0.033428896 0.049771845 0.062289264
0000b0 95 f6 4c 3d 0c 62 10 3d 30 b4 85 bc 98 26 3e bd
       0.050039846 0.035249755 -0.016321272 -0.046423525
0000c0 b6 88 cd bc 41 84 1c 3d ca ef e7 bc 31 a2 a2 bd
       -0.025089603 0.038212065 -0.028312583 -0.07941092
0000d0 70 e5 24 bc 0d e5 00 3d 60 1e b5 bc 63 e7 a6 bd
       -0.010064468 0.03146844 -0.02210921 -0.08149602
0000e0 b4 70 22 bc 04 45 9a bd 22 3d 5b 3d fe 96 c1 3d
       -0.009914566 -0.07532695 0.053525098 0.094526276
0000f0 b7 42 2f bd 9c a6 6b 3c bd 33 b1 3d 71 41 24 3c
       -0.042788234 0.0143829845 0.086524464 0.010025368
000100 31 a7 ed 3b d7 60 28 3d 2d 9f 58 bc 76 85 1a 3c
       0.007252597 0.04110798 -0.013221544 0.009431234
000110 a7 dd db 3c af 85 1a bc 4c e5 24 3d 0c d2 0e bc
       0.02683909 -0.009431287 0.040257737 -0.008717071
000120 27 93 a9 3d 72 98 6f 3d 47 43 1b 3d 3c b2 16 3d
       0.0828002 0.058494993 0.037905958 0.03679107
000130 02 a6 0f bc 23 45 50 3d 7a ca 05 3d a2 b1 af 3c
       -0.008767607 0.050847184 0.0326638 0.021447007
000140 f7 92 a1 bc cf 10 96 3d 6b bf 3d bb a5 e4 83 bd
       -0.019723399 0.07327425 -0.0028953205 -0.06440095
000150 be 77 81 bd 87 36 f6 bb 91 4d 21 3a 93 17 62 3d
       -0.06321667 -0.0075138244 0.0006153221 0.055198263
000160 3b c0 72 3c ce b2 cb bc fc 78 ba bb 1d 50 95 3c
       0.014816339 -0.024865534 -0.005690692 0.018226678
000170 2a a4 36 3c 8e 26 9f bc 76 29 67 3d 63 55 8b 3c
       0.011147538 -0.019427564 0.056436025 0.017008489
000180 02 03 fe 3c 52 1e 10 bc cc 37 0d 3d a7 de a6 bc
       0.031007294 -0.008796291 0.03447704 -0.02036984
000190 84 fe c0 3c f6 9d 42 bd cb cf 08 3d 80 4c 57 3d
       0.023558863 -0.047513925 0.03340129 0.05256319
0001a0 e5 8e 99 bc 54 e9 e2 39 cf 0c 10 bc 43 5c f3 3c
       -0.018744895 0.00043279922 -0.008792116 0.02970708
0001b0 53 36 2f 3c 4e 95 bc 3c ff be bb bc 79 75 8b 3c
       0.010694104 0.023020413 -0.022918222 0.017023789
0001c0 1f ee 89 3a 65 7f a2 bc 18 f2 30 bd 6c 9f 5c bd
       0.0010523236 -0.019836137 -0.04319963 -0.053862974
0001d0 c1 f7 92 bc 5d 02 66 3d 80 4e 26 bc d2 a7 67 bd
       -0.017940404 0.056154598 -0.010150552 -0.05655653
0001e0 f3 46 92 bc 5e 0e 0d 3c cb 40 8e 3c 06 dd 97 3c
       -0.017856097 0.008609382 0.01736488 0.01853801
0001f0 9e 76 29 bd cc 7f 11 3c 08 f4 a6 bc 54 aa 8c 3c
       -0.041372888 0.008880567 -0.020380035 0.017171063
000200 76 4d 80 3d f0 5e 75 3d bc 98 8a bc 00 6a 0b 3d
       0.062647745 0.059904993 -0.016918533 0.034036636
000210 c5 d8 25 bd 6a e5 ac 3c 2a f2 61 3d 1f 6c d1 bc
       -0.04048993 0.021105487 0.055162586 -0.025564251
000220 98 ec 1f 3d d0 fa 1e bc 9a 01 46 bd fb 95 2d bc
       0.039043993 -0.009703353 -0.04834137 -0.01059484
000230 d2 64 58 3d 29 6d 3b bd 51 29 fa 3c 8f 7d d3 bc
       0.052830525 -0.0457584 0.03053728 -0.025816707
000240 33 de 34 bd b4 f7 0a 3d 1e 35 17 3d ce 67 a8 bd
       -0.04415722 0.033927634 0.03691589 -0.08222924
000250 61 85 23 bd 4f fe 6e 3c c4 9f 5b bd 7c 5b 3a 3c
       -0.039922122 0.014586999 -0.05361916 0.011374351
000260 2b 88 96 3c 54 ce 0a bd 01 12 bf 3c 80 cb 81 bd
       0.018375477 -0.033888176 0.023324015 -0.06337643
000270 81 07 57 bc 56 c5 0b 3d bc 24 b5 39 12 5a 3d 3d
       -0.013124348 0.03412374 0.0003455038 0.046228476
000280 d1 2d 03 3d f5 79 8d bd c7 22 00 bd 9e d2 23 3c
       0.032026116 -0.06908027 -0.031283166 0.0099989455
000290 a7 81 45 3c 3b 93 39 bd 0d 60 64 3c 4a 19 31 bd
       0.012054837 -0.045306426 0.013938916 -0.04323701
0002a0 42 ca 29 bd 87 e8 62 3c f0 73 77 bd 3d 42 af bc
       -0.041452654 0.013849384 -0.0604133 -0.02139389
0002b0 f3 5d 65 3d d1 a5 dc 3c c8 ad 6e 3d 56 1b ab bc
       0.0559978 0.026934536 0.0582712 -0.020887058
0002c0 40 68 70 3d 47 33 2e 3d 48 e7 05 3c 8c 9b 33 3d
       0.05869317 0.04252937 0.0081728175 0.043849513
0002d0 28 0c 67 3d 2c 55 68 bd c7 69 8a 3d 37 82 9b bb
       0.056408077 -0.05672185 0.06758457 -0.0047457474
0002e0 13 38 d2 3c c9 f3 1f 3c 69 fb 6b bd 65 6c 98 3c
       0.025661504 0.009762713 -0.05761281 0.018606374
0002f0 be df 3b ba 21 1b d1 39 ca 3e 7b bc 78 c7 ba bc
       -0.0007166824 0.000398838 -0.015334794 -0.022800192
000300 df 51 d3 3c 43 c9 7d bd 9f 3e bc bc 28 47 82 3d
       0.025795875 -0.061959516 -0.022979079 0.06361228
000310 94 17 0f 3d ca 3a 05 ba 35 49 9d ba 7f b6 6d 3c
       0.034934595 -0.00050823076 -0.0011999967 0.0145088425
000320 8d 4c 12 3d 81 14 82 bd c3 82 5f bc b4 73 3b bd
       0.035717536 -0.06351567 -0.013642016 -0.04576464
000330 48 08 cf 3b da c8 40 bd e0 fa c9 bc 81 fc 59 bd
       0.006318126 -0.047066547 -0.02465576 -0.053219322
000340 9f 23 10 bd 35 f9 d6 bc d3 07 c4 3c 49 af 74 3c
       -0.03519022 -0.026241878 0.023929512 0.014934369
000350 19 d0 14 3d 9e d0 67 3d ea 10 00 3d da 73 d8 3c
       0.03633127 0.056595437 0.03126613 0.02642243
000360 ae 5a 45 bd f7 31 3e bd 3b 4c 58 3b e6 6f 0b bc
       -0.048182182 -0.04643437 0.0033004421 -0.008510565
000370 4c ed c4 3c 80 61 16 bd 97 0d 00 bd a4 62 d8 3c
       0.024038933 -0.036714077 -0.03126296 0.026414223
000380 dd 9b f9 3c 75 7c fe 3b 3e 06 0f 3c eb c9 93 3c
       0.03046983 0.0077663013 0.008729516 0.018040618
000390 be 6c 25 3d 16 55 6f bd 98 cd 84 3c 3b df 8d 3d
       0.040386908 -0.058430754 0.016211316 0.069273435
0003a0 75 57 60 3d da b7 0c 3d de f5 8f 3c ee 3d c4 bc
       0.054770906 0.034355022 0.017573293 -0.023955312
0003b0 75 8f 8c 3d 7d ba 0f 3d a1 f7 02 bd 6c 6a 40 bd
       0.068633 0.03508996 -0.03197444 -0.04697649
0003c0 6d 23 3d 3d 95 94 b9 3c a1 48 4e bd 62 ba 9b bc
       0.046176363 0.022653857 -0.050362233 -0.019009773
0003d0 88 8d e6 3b eb b3 e4 bc 1f 92 e9 3c fc 75 06 bd
       0.007035915 -0.027917823 0.028512059 -0.032827362
0003e0 91 e4 31 3d 00 f8 7d 3d 31 9b d1 3c dd b6 e6 bc
       0.04343087 0.06200409 0.025586696 -0.028163368
0003f0 9c 78 7f 3c 10 9d 61 3d 3a 67 1c 3d f7 48 cc 3c
       0.01559272 0.055081427 0.038184382 0.024937136

fc1.bias f4 [160]
000000 25 ab 23 bd e1 f5 32 3d 53 56 63 3c 68 a1 6d bc
       -0.039958138 0.04369152 0.013875562 -0.014503814
000010 0d b2 54 bc 9a 14 72 bc 9c 05 c8 3c 72 6b 5c bd
       -0.012981904 -0.01477542 0.024416737 -0.053813405
000020 dd 8d 5e 3c f1 16 d4 b9 91 ad aa bb e0 ab ac 3b
       0.0135836275 -0.00040452884 -0.005208679 0.0052695125
000030 31 f2 b7 bb 97 62 74 bc a4 51 4c bb 69 46 41 3d
       -0.0056135883 -0.014916084 -0.0031176591 0.04718629
000040 98 f2 15 bd 4b eb 6a 3d c6 5a 84 bc 6a 69 42 bd
       -0.03660831 0.0573533 -0.016156565 -0.047463812
000050 40 4e 97 3c 28 f3 8a 3d 7a 20 a8 bc f9 af cd 3c
       0.01846993 0.067846596 -0.020523299 0.025108324
000060 25 be 3b 3c 06 c4 53 3d ff a1 22 bd d6 7e cb 3c
       0.011458908 0.051700614 -0.039705273 0.024840754
000070 53 e0 50 3d db c9 45 bc 8f 60 32 3d 76 3b 9b 3c
       0.050995182 -0.012072052 0.043549117 0.018949252
000080 56 46 ca bb 90 11 1c 3d 1f 77 20 bd 46 43 69 3d
       -0.0061729355 0.038102686 -0.039176103 0.056948923
000090 a4 3c 4a bd a0 50 72 bc cb 50 27 bd f7 5a 4e 3d
       -0.049374238 -0.01478973 -0.040848535 0.05037972
0000a0 a0 ff c7 3c 43 14 7b 3c 4e d2 59 3d 95 78 6f b9
       0.024413884 0.015324655 0.053179078 -0.00022837736
0000b0 93 b6 be bc 1f 32 f1 3b 83 7e 3a 3d 6e e5 20 3d
       -0.023280418 0.007360711 0.045530807 0.0392813
0000c0 8a 95 63 3b 83 62 5d 3c ed 85 9a bc cf 15 49 bd
       0.0034726583 0.013512257 -0.018862689 -0.049093064
0000d0 09 57 3e ba ce 2b 0b 3d e5 bd 42 bc fa 3a dd bc
       -0.0007260894 0.033977322 -0.011886095 -0.027005661
0000e0 25 76 71 bc fb 97 df bb 2c 27 59 3d 86 62 36 3d
       -0.0147376405 -0.0068235374 0.053015873 0.044527553
0000f0 af d1 a2 3b 2a 3d 5e bd a2 ed 2e bc eb c4 58 bd
       0.004968844 -0.05425755 -0.010676773 -0.05292217
000100 dc 75 73 3c 2d 0f d6 bb de eb 59 3d fd 15 50 bd
       0.014859643 -0.006532571 0.053203456 -0.05080222
000110 09 dc 42 3d d4 a6 48 bd 6c 70 bf 3c f9 32 da bc
       0.047573123 -0.048987225 0.023369037 -0.026635634
000120 68 7a b5 3b 4a 41 33 bd bb f4 7f 3d 76 db 58 bd
       0.0055382736 -0.043763436 0.062489253 -0.05294367
000130 7d ed 57 3d b8 ac 84 3c f0 76 03 bc 08 de d2 3c
       0.05271672 0.01619564 -0.008023962 0.025740638
000140 02 2c 48 bc 5c 1a b2 bc ca e2 e9 3b b4 bd 97 bc
       -0.0122175235 -0.021741085 0.007137631 -0.018523075
000150 b3 6e c1 bc 5d f3 08 3d 36 11 1a bd 2a e6 e2 bb
       -0.023612356 0.033435214 -0.03761407 -0.0069244104
000160 db 67 ae 3c e5 f7 a2 3b 00 a2 0a 3d ff ee 2c 3d
       0.021289757 0.004973399 0.0338459 0.042220112
000170 b4 ce 41 3c 63 29 32 bc 84 c1 d0 3c d0 07 68 3d
       0.011829067 -0.010874125 0.0254829 0.056648076
000180 6c 36 10 bd d2 67 4e 3d 69 cc 24 bd e0 f8 97 3b
       -0.03520815 0.05039198 -0.040234003 0.0046378225
000190 2a 8f 2e 3d 5c 2b 8d 3c 7f db a8 3c 9d f3 34 3c
       0.042617 0.01723259 0.020612476 0.01104441
0001a0 96 0a 00 3d 62 07 d0 bc b4 83 ed 3b ea 9f 00 3c
       0.031260096 -0.025394145 0.0072483663 0.0078506265
0001b0 f0 fd 18 bb 68 55 44 bd d5 da 80 bc f8 9b f3 bc
       -0.0023344718 -0.047933012 -0.015729347 -0.029737458
0001c0 44 64 fe bc f6 39 11 3d 41 28 64 3d 18 02 05 bc
       -0.03105367 0.035455666 0.05570245 -0.008118175
0001d0 51 d7 82 3d 16 5d 0e bd 71 b6 69 3d 2b c2 a3 bb
       0.063887246 -0.034756742 0.057058755 -0.004997512
0001e0 10 ec 05 bd c1 00 12 3c 11 43 e3 bb 6d 27 24 3c
       -0.03269583 0.008911313 -0.006935485 0.010019165
0001f0 9e b2 67 bb 2e 44 d5 3c 59 9c 4e bd 34 79 f8 bc
       -0.0035354267 0.026033487 -0.050442073 -0.030331232
000200 c4 b7 64 3c ac 21 4f 3d df af 42 bd 45 18 a2 bb
       0.013959829 0.05056922 -0.047531005 -0.004946741
000210 8d 62 db 3c 89 11 a2 bb ac bc 0a 3d ff ac 03 3d
       0.026780391 -0.004945938 0.033871338 0.032147404
000220 f2 ee ba ba 52 de ee bc 8e 4a 64 bd 1d 6b e7 3c
       -0.0014261885 -0.029158745 -0.055735163 0.028249318
000230 a6 c8 b1 bc ae 58 5e 3d 11 62 8d bc 73 37 3d bd
       -0.021702122 0.05428379 -0.017258676 -0.04619546
000240 1b b4 8d bc dc 56 68 3d 5a 6a 0d bd 38 db 6e 3d
       -0.017297795 0.05672346 -0.034525253 0.058314532
000250 14 69 1a 3d b3 be d0 bc cd 7b 19 3d f1 13 34 bd
       0.037697867 -0.025481557 0.03747158 -0.04396433
000260 6f a8 0c 3d f8 1f 10 3d f7 15 30 3d 2f c8 ec bc
       0.03434032 0.035186738 0.042989697 -0.028904049
000270 e8 a7 3b bd a4 9c 60 3d f8 63 06 3d 3d 5f 20 3c
       -0.045814425 0.054836884 0.03281018 0.009788332

fc2.weight f4 [80, 160]
000000 11 04 50 3d e9 95 2a 3d 44 e7 ae 3c ed e8 21 bd
       0.050785128 0.04164687 0.02135051 -0.039528776
000010 5f 95 61 3d ff 7c 51 bd c9 ab 06 3d 68 57 42 3c
       0.055074092 -0.051144596 0.03287867 0.01186166
000020 41 ad 54 bd 35 f3 40 bd cc 2e c7 3c e7 0b 8c 3c
       -0.05192304 -0.04710694 0.024314307 0.01709552
000030 cc 49 91 bd 33 f5 88 3d 20 40 1d 3c 36 14 2b 3c
       -0.07094154 0.06687393 0.009597808 0.01044183
000040 98 94 25 bc 1d 3f 8a 3d ce 61 87 bd 51 ee 06 3d
       -0.010106228 0.06750319 -0.06610452 0.03294212
000050 95 7e 04 bd 2b df 8f bd b4 27 7a bd 47 93 87 bc
       -0.03234728 -0.07024988 -0.06107302 -0.01654972
000060 0c 82 28 3d 6f b8 8f 3d be e8 92 bd 06 81 1e bd
       0.041139647 0.070176 -0.07173298 -0.038697265
000070 cd f4 77 3b 03 ad 49 3c c6 c3 52 3c 9b 4e 48 bd
       0.0037835122 0.012309316 0.012864059 -0.04890309
000080 30 73 1e 3c de c2 c4 bc 43 59 24 3d b1 6f f6 3c
       0.0096710175 -0.024018701 0.04012419 0.030082555
000090 81 62 93 3d e8 ae d7 bc ad b1 72 bd 17 10 3d 3d
       0.071965225 -0.026328519 -0.059251476 0.046157923
0000a0 d9 19 59 bc 5d 3e 54 3c c6 93 7e bd 4a 21 75 3d
       -0.0132507915 0.012954322 -0.062152646 0.0598462
0000b0 a1 50 e8 bb 32 2c 21 bd d3 d1 7d 3d 57 af 0d 3c
       -0.00708969 -0.03934879 0.061967682 0.008647761
0000c0 d3 aa b8 b9 b9 cc 14 3c 08 ca 13 bd cc 8d 8b bd
       -0.0003522249 0.009082013 -0.036081344 -0.06814155
0000d0 ec 15 bb 3b 17 2b fc bc 5d 8f 1d bd 26 69 35 3d
       0.0057094004 -0.030782266 -0.0384668 0.04428973
0000e0 de d1 84 bd 8f 6d fe bc 6c 68 2c 3d d1 92 6e bd
       -0.064853415 -0.031058101 0.042091772 -0.058245484
0000f0 40 51 7b 3d 07 7e fe bc d3 e2 71 bd 8a 10 94 bd
       0.061356783 -0.031065954 -0.059054207 -0.07229717
000100 02 15 84 bd eb be 08 bd 15 42 48 bd 43 19 20 3d
       -0.064493194 -0.0333852 -0.048891146 0.03908659
000110 37 3a c9 bc b7 a3 82 3c bb 4f 51 bd b3 d2 54 bd
       -0.024563892 0.015947206 -0.051101428 -0.05195875
000120 9f 67 d8 3c d4 8d cf 3c f7 79 05 3d 38 d3 62 3d
       0.026416598 0.025336184 0.032587018 0.055377215
000130 9c 75 7a bd 3d 92 72 bd a1 a7 92 bd 2b e0 52 bd
       -0.061147317 -0.059221495 -0.07160879 -0.051483314
000140 25 a2 01 3d ec 89 08 bc 09 ad 88 bd 6a 72 0a bc
       0.031648774 -0.008333664 -0.06673629 -0.00845013
000150 d3 f5 87 3c 51 74 3c bd 5a ba 42 bd 94 c0 fd bc
       0.01659671 -0.046009365 -0.047541 -0.030975617
000160 b7 53 5f 3c e4 2f 4c bd 0a e1 0c 3d 49 3a 06 3d
       0.013630799 -0.04985036 0.0343943 0.03277043
000170 32 c0 8a bc 0c 8e 26 3d c5 8b 16 3d 16 1d 0d bd
       -0.016937349 0.04066281 0.03675439 -0.034451567
000180 12 7a 64 3c b9 c9 c8 3b 96 f2 a1 bd 9a 72 bc bc
       0.013945119 0.006127563 -0.07907598 -0.023003865
000190 2f ca 32 3d e4 e5 29 bd 27 93 95 bd 8f d6 55 3d
       0.04364985 -0.041479006 -0.07303458 0.052206572
0001a0 76 ba 68 bb c3 11 15 bd 55 3a 83 bd 85 fa dd bc
       -0.003551153 -0.036393892 -0.0640761 -0.027096996
0001b0 70 84 66 bd a5 3f 8d bd 49 bf 96 bd ed be 94 bd
       -0.056278646 -0.06896905 -0.073607035 -0.07262979
0001c0 5c bb 9e 3d 31 9e 80 3d e1 c9 a7 3c a1 85 1c 3d
       0.0775058 0.062801726 0.020482006 0.038213376
0001d0 2f 5b b0 bc e0 a4 2a bd cc 2b 13 bd 3c ec 61 3c
       -0.021527855 -0.041661143 -0.03593044 0.013789233
0001e0 b8 0f 7c bd fd de 19 3d ac 5c 51 3d 4b e4 53 3d
       -0.061538428 0.037566174 0.05111377 0.05173139
0001f0 8c de 75 bc 35 f6 16 3b d2 37 0d bd 53 56 fd 3b
       -0.015006673 0.0023034934 -0.034477063 0.007731238
000200 b8 26 84 bc 3e 1a 03 3d 19 46 97 bd fd b3 08 3d
       -0.016131744 0.03200745 -0.07386417 0.033374775
000210 4a 14 37 3d c6 c2 86 bd 83 44 9f 3d 73 82 07 3d
       0.044697084 -0.06580119 0.077767394 0.03308339
000220 77 4b 8c bd c1 f3 0c bd 3c dc 5e bd c9 d4 ff 3c
       -0.06850331 -0.03441215 -0.05440925 0.031229394
000230 ea 1e 21 3d c0 f2 8f 3d 52 6a 9d 3c 4e d0 13 3a
       0.039336123 0.07028723 0.019215737 0.0005638645
000240 51 8b 03 3d d3 bf 43 3d e7 45 50 3d 56 1e 1b bd
       0.032115284 0.04779036 0.050847914 -0.037870727
000250 c6 a4 4b 3d 1b 53 6c bb 2f 4b 97 3d 00 23 7f 3d
       0.049717687 -0.0036060277 0.07387387 0.062289238
000260 92 13 9b bd fd 1c 3b bd 40 e6 4c 3d 4f 47 9c 3d
       -0.07572092 -0.045681942 0.05002427 0.076307885
000270 ea db 91 3d e8 db fc bc 05 ad 96 3c 9a ff 7e 3d
       0.071220234 -0.030866578 0.018393049 0.06225548
000280 3f 16 93 bd de b4 d1 3d 5b 35 23 bd d5 f1 2a 3d
       -0.071819775 0.10239576 -0.039845806 0.041734535
000290 1a 96 62 3d 51 7d 04 3d ab 68 65 3d 6b 56 b8 3a
       0.05531893 0.032346074 0.056008022 0.001406384
0002a0 e9 af 05 3d fd 84 96 3d da 27 56 3b 44 7d 62 3c
       0.032638464 0.07349584 0.0032677562 0.013823811
0002b0 f5 87 01 be 3b d8 8f bd d1 d4 85 3b 6a 52 68 bd
       -0.1264952 -0.070236646 0.0040842076 -0.05671922
0002c0 a0 ab 44 3c 3c 85 3b 3d 81 54 47 bd 5f 75 f5 bb
       0.012003809 0.04578136 -0.048664574 -0.0074907984
0002d0 d0 85 92 bc bf d2 a3 3c d4 93 af 3c 26 95 8c 3c
       -0.017886072 0.019997953 0.021432795 0.017160963
0002e0 bf fe 4c 3d 8f aa 4f 3d 01 87 17 bd 56 cf 80 3d
       0.050047632 0.050699767 -0.036993984 0.06289546
0002f0 77 02 8d bd f0 a2 95 3d 04 c1 9f bd 77 05 21 3d
       -0.06885236 0.073064685 -0.07800487 0.039311852
000300 7f d8 65 bd cf 56 9d bd 60 31 2c 3d ef ad c0 3d
       -0.05611467 -0.07682573 0.042039275 0.09408175
000310 97 8c 93 bd 77 52 1c 3d 9c 26 1c 3b ef 62 8c bd
       -0.0720455 0.038164582 0.0023826724 -0.068548076
000320 d9 fc 5c 3c c7 41 a4 3d b3 84 ab bd ca 49 b2 bb
       0.013488018 0.080203585 -0.0837492 -0.0054409252
000330 63 3c ca 3b 0a a3 92 bb 87 5a ba 3b 52 42 17 3d
       0.0061717494 -0.004475002 0.005687061 0.036928482
000340 e9 9e 1e bd dd d4 2f 3d 93 5c 54 bd c2 e8 de bc
       -0.038725767 0.04292761 -0.0518461 -0.027210597
000350 4f 83 6c bd 08 e8 dc bc 83 2c 21 3d 4d 8e a5 3d
       -0.057742413 -0.02696611 0.03934909 0.08083782
000360 15 59 75 bd a1 25 12 bd 22 13 2c bd 0f 14 a0 3d
       -0.05989941 -0.035680417 -0.042010434 0.07816326
000370 3f ab 8e 3b ba dd 29 bc 80 c1 9e 3c 2e 94 61 bd
       0.00435391 -0.010367805 0.019379377 -0.055072956
000380 b9 57 37 3d a5 2c 90 bc ee 30 f9 3d a6 1d 8a bd
       0.044761393 -0.017599413 0.12167536 -0.06743936
000390 e3 42 c9 bc f7 74 9b bc 0d 3d d7 3c c1 b8 30 bd
       -0.024568027 -0.018976672 0.026274228 -0.043144945
0003a0 8b ff da 3d 83 d4 98 3d 26 cf 0d 3d d1 25 76 3d
       0.10693272 0.074624084 0.03462138 0.06009466
0003b0 c2 bd 97 bd 59 3d 41 3d ab dd 30 3d 46 a0 6b 3d
       -0.0740924 0.047177646 0.04318015 0.057525896
0003c0 ed 54 87 3c 57 37 8b bd 56 4c ad 3d d6 d6 ca bc
       0.016519988 -0.067976646 0.084618255 -0.024760645
0003d0 e2 dc 4c bc fc a3 69 3d da df 51 bc 38 65 8b 3d
       -0.012503834 0.057041153 -0.012809718 0.06806415
0003e0 05 61 7e 3c 51 01 0c bd ad 1c 0c 3d e4 b5 73 bd
       0.015526061 -0.034180943 0.034207035 -0.059499636
0003f0 71 1f 77 3d db a7 89 bc 4b a2 1f 3d 65 0b 73 3d
       0.06033272 -0.016803673 0.038973134 0.05933704

fc2.bias f4 [80]
000000 8e 2e 8a bc 52 7f af 3c ac 52 02 bd a6 49 78 bd
       -0.016867902 0.021423016 -0.031817123 -0.06061711
000010 6e ab b6 bc e9 dd 96 3d d1 60 fa bb 84 6b 62 3d
       -0.02229854 0.07366545 -0.007640936 0.055278316
000020 d6 37 5b 3d c1 05 a3 3d fb 34 ff bc 3d 37 35 bd
       0.053520046 0.07960082 -0.031153193 -0.044242132
000030 3d 0c 87 3d d7 50 03 bd 29 e5 6d 3c da 92 42 bd
       0.06594131 -0.032059517 0.014519968 -0.04750333
000040 38 7e 4f 3d d5 ae bd 3b d8 95 d3 bc 09 e4 62 3d
       0.05065748 0.005788664 -0.025828287 0.055393253
000050 a7 72 90 3d 32 45 3b bd 53 da 5e 3d e0 c4 89 3d
       0.07053118 -0.045720287 0.05440743 0.06727004
000060 af 2b 51 bc 30 14 ba bc 55 e3 af bc ba 4b 8b 3d
       -0.012766763 -0.022714704 -0.021470705 0.06801553
000070 89 7a 8a 3d 7b 11 5c 3d eb 51 89 3c f7 3a 96 3d
       0.06761653 0.05372761 0.016762694 0.073354654
000080 8e 6f a0 bd f1 5c 8b bd 33 90 86 bd c0 5e 2d 3c
       -0.07833777 -0.068048365 -0.065704726 0.010581672
000090 04 e8 62 3d 96 14 a8 3d 6c ac 5d 3d 4b dd 95 3c
       0.05539705 0.082070515 0.054119512 0.018293997
0000a0 dc 01 9b 3d 31 c2 8a bd e4 5f 53 bd 65 46 3f bc
       0.07568714 -0.0677532 -0.05160512 -0.011674498
0000b0 09 52 89 3d 3e 67 92 bd 82 d1 4e 3d 05 8b 5d bd
       0.067051 -0.07148598 0.05049277 -0.054087657
0000c0 ac 13 ab 3d f1 48 8f 3d e2 4b b3 bc 7e 86 83 bd
       0.083533615 0.06996334 -0.02188677 -0.06422137
0000d0 f1 ee 17 bc e8 91 6b bc f6 f9 52 3d 1b 71 6c 3d
       -0.009273277 -0.0143780485 0.051507913 0.057725053
0000e0 59 4f 95 bd 90 54 91 bd 91 e7 f6 3b 54 90 c9 3c
       -0.07290525 -0.07096207 0.007534929 0.024604954
0000f0 54 2c 7b 3d ec 1d 4a 3c 3a 42 4f bd 44 47 d1 3d
       0.06132157 0.0123362355 -0.050600268 0.10218671
000100 07 38 94 bd ec 42 22 bd ba cf 62 3d e2 bb a3 3d
       -0.07237249 -0.039614603 0.055373885 0.0799482
000110 5b 10 ae 3d 08 4b 71 bd 61 bf a3 3b 78 60 b8 3d
       0.08499213 -0.058909446 0.0049971794 0.09002775
000120 2a e2 8e 3d 3e aa 81 bd e3 70 40 3d ee 36 98 3d
       0.06976731 -0.06331299 0.046982657 0.07432352
000130 68 86 81 bd 5e 8a 61 3d 70 a6 4a bb 70 f7 db 3c
       -0.06324464 0.055063598 -0.0030921958 0.026851386

fc3.weight f4 [10, 80]
000000 4c 89 9f 3c f6 10 d8 bd e2 f6 85 bd fc cb 8c bc
       0.019474648 -0.1055011 -0.0654123 -0.017187111
000010 a7 5e 7b 3e c6 53 a4 3d 2c 78 c8 3c 51 e3 e6 bd
       0.24547826 0.08023791 0.024471365 -0.11273826
000020 a9 b7 f3 bc a7 f7 65 bd c9 57 1c bd 56 45 45 3e
       -0.029750662 -0.056144383 -0.038169656 0.19264731
000030 cf d3 50 3d 7e 8d 5e bb 0d f3 77 3d 0b bd 0b be
       0.050983246 -0.0033958848 0.060534526 -0.13646333
000040 d5 84 19 3e 68 96 92 bd 8b e7 d6 3c 9d 8a 28 be
       0.14992078 -0.07157594 0.026233455 -0.16459127
000050 18 0d 27 be 8c 38 0a be 4e 0d cb 3c 7e 3b 59 3d
       -0.16313589 -0.13498133 0.024786618 0.05303525
000060 22 b8 53 be af ff c8 bd 45 0d f5 bb 90 84 ba bd
       -0.2067571 -0.09814393 -0.0074783885 -0.091073155
000070 a1 86 53 3e 6d 2c bc 3d 35 04 0f bc ca 39 11 3e
       0.20656826 0.09188161 -0.00872903 0.14182201
000080 d9 21 ec bd f7 31 46 be ad d5 0b 3d 12 68 c1 bb
       -0.115298934 -0.19354998 0.034139324 -0.0059022987
000090 9a 82 54 be dc f3 2e bd 12 2b 5b 3e 30 46 8c bd
       -0.20752946 -0.04271303 0.21403149 -0.06849325
0000a0 5c d3 3e 3e c9 4b b2 bc e9 ca 24 be 31 77 31 3d
       0.18635315 -0.021764653 -0.16093029 0.04332656
0000b0 32 52 9e bd c7 01 0f 3d 31 a6 6a 3e 5e 98 2b bd
       -0.07730521 0.034913804 0.2291496 -0.041893356
0000c0 05 b7 19 be 38 0e fc bd 08 0b 42 3e 5d 0e 4f b9
       -0.15011223 -0.123073995 0.1894952 -0.00019746409
0000d0 eb 9f ad bd 92 23 ef bd cb 35 93 bd 09 87 12 be
       -0.084777676 -0.116767064 -0.071879946 -0.14309324
0000e0 a2 cb 93 3c 95 ba cf 3d 8c e7 03 3d ee 37 ee bd
       0.018041436 0.101430096 0.032203242 -0.116317615
0000f0 4a a7 10 be b0 65 a5 3d f4 9a 4a 3d 37 80 2d bc
       -0.14126316 0.08076036 0.04946418 -0.010589651
000100 9b b3 a2 3c fb 59 92 bd a8 56 c0 3d e6 da 95 bd
       0.019861033 -0.07146069 0.09391528 -0.07317142
000110 be d0 15 be 62 f3 ba 3d c5 30 49 3e e2 3c 5c be
       -0.1463041 0.09128453 0.1964751 -0.215076
000120 03 0e 6c 3c 8b 69 13 3b d0 af 9c 3d f2 73 b5 bd
       0.0144076375 0.0022493328 0.07650721 -0.088600054
000130 90 d8 a3 bd 5d 89 75 3d 6d 55 f4 bd d6 3e db 3d
       -0.080002904 0.059945453 -0.11930356 0.107053444
000140 60 a6 9a 3d c8 64 7a bd d8 3c ec 3d 85 fa 86 3d
       0.07551265 -0.06113127 0.115350425 0.065907516
000150 c0 02 17 be 40 25 10 3e 08 42 55 3d 05 6d 23 be
       -0.14747143 0.1407671 0.052064925 -0.15959556
000160 a6 b0 ea bd ed 98 31 3e 12 7c 99 bb 42 f1 9b 3e
       -0.11459474 0.17343493 -0.00468398 0.30457503
000170 14 dc 15 be 3b c7 06 be 65 b3 c7 3d a5 03 4f 3d
       -0.14634734 -0.13161938 0.09751014 0.050540585
000180 8b cd 27 be e3 cf e5 bd 39 cc 84 bc ec a8 27 bd
       -0.16387002 -0.11221292 -0.016210662 -0.04093258
000190 fe 37 46 bd e4 ff 68 3d 34 f3 48 3e a8 9a 98 bd
       -0.048393242 0.05688466 0.19624025 -0.07451373
0001a0 7b 0e 47 bd 7f 56 a0 bd 16 4b 45 bd 22 24 ae 3d
       -0.048597794 -0.07828998 -0.04816731 0.085029855
0001b0 18 11 2a be 77 b6 01 be a3 46 05 be 77 44 aa bc
       -0.16608083 -0.12667261 -0.13015227 -0.0207846
0001c0 f1 69 f3 3d 13 51 d6 bd 6b ae f3 3c f8 58 97 3d
       0.11885441 -0.104646824 0.029746255 0.07390016
0001d0 d5 cf 82 3d 36 e2 7c bd 91 c3 2f be 64 4f 21 3e
       0.06387297 -0.06173917 -0.17164446 0.15752941
0001e0 70 21 d8 3d 2b 06 c5 bd c0 e4 cf bd 76 03 c1 bd
       0.10553253 -0.09620317 -0.101510525 -0.09424488
0001f0 01 cd 10 3e 1a 76 c5 bd a9 da 53 3c 42 f1 18 3e
       0.14140703 -0.09641667 0.012930551 0.14935783
000200 bb f7 93 bb 5d 20 70 3e e6 ca 66 bd 3e d4 81 3d
       -0.0045156158 0.23449846 -0.056345843 0.0633931
000210 a3 f6 72 3c 54 1b 17 3e d1 0d bd bd 76 91 54 3e
       0.014829311 0.14756519 -0.09231151 0.20758614
000220 08 ff e5 bd 2b f3 de 3d 9a d8 0b 3e 9c 76 8f 3d
       -0.11230284 0.10886224 0.13656846 0.07005045
000230 0c 95 90 3e df 57 f1 3d cf a0 ce bd e7 ae 34 3e
       0.28238714 0.11784338 -0.100892656 0.17644845
000240 6f b9 22 3e 76 df 35 3d a3 47 55 3e 73 59 90 bd
       0.1589105 0.044402562 0.20828108 -0.07048311
000250 2b be 99 3c ca 8b 06 3c 30 6f 45 be ed af 55 bc
       0.018767437 0.008212039 -0.19280696 -0.013042432
000260 1e ac 09 be 32 7f 16 be 26 bb 47 be 18 ca 66 bd
       -0.13444564 -0.14696959 -0.19504985 -0.056345075
000270 d1 1f af 3c b9 08 43 be ce fa 1f be e3 8d 74 3d
       0.021377476 -0.19046296 -0.15623018 0.059705626
000280 87 6e 30 bd 2c e8 a1 bd ed f4 05 3d 7b 2f 80 bd
       -0.043074157 -0.079056114 0.032704283 -0.06259056
000290 fc be 47 3e a8 74 e2 3d 3d 3b cd 3d b8 2a 8e bb
       0.19506449 0.11057407 0.100210644 -0.0043385886
0002a0 65 26 d2 bd 45 97 9f bd 63 15 b2 3d 09 89 28 bd
       -0.102612294 -0.07792524 0.086954854 -0.041146312
0002b0 ef 54 2a be e8 b2 80 be 56 19 58 3d dc 9d bf bc
       -0.16633962 -0.25136495 0.052758537 -0.023390703
0002c0 0c b5 1e bd 9e c7 85 3e fa 87 f9 3d 96 b4 fc bd
       -0.03874688 0.26128858 0.121841386 -0.123391315
0002d0 17 8e 8a 3e 6e 1d 18 be 4d 1f 26 3e d7 d8 01 bd
       0.2706153 -0.14854977 0.16222878 -0.031700935
0002e0 23 bb 98 be cb d4 db bd b2 7d d2 bd d3 cc 59 3d
       -0.29830274 -0.107339464 -0.10277881 0.05317385
0002f0 34 0f 27 3e 8f f8 4e be 05 c0 4a 3e b4 a8 d7 3d
       0.16314393 -0.20212005 0.19799812 0.105302244
000300 50 fc 7c 3d 46 6b b7 bd fa 46 49 3b 68 fa 0e 3d
       0.06176406 -0.08956008 0.0030712471 0.034906775
000310 cc a2 b2 bc 9f cb 4d bd 76 ac ce 3c b6 31 4d 3d
       -0.021806143 -0.050243016 0.02522872 0.050096236
000320 e1 3b 65 be e8 a6 9d 3d e8 a3 29 be 4a 36 38 bd
       -0.22386123 0.076978505 -0.16566432 -0.04497365
000330 70 49 d0 3d f4 dd bf 3d 55 d2 74 bd 66 43 46 bd
       0.10170257 0.09368506 -0.0597709 -0.04840412
000340 d2 09 18 3e 79 f1 73 3c 32 ff 4b 3e 67 3f bb bd
       0.14847496 0.014889115 0.19921568 -0.091429524
000350 a7 eb d7 bd 34 29 88 3b 64 dd 33 3e cc 1c 83 3e
       -0.10542994 0.0041553024 0.17564923 0.25607908
000360 d0 a8 cd bd b6 ae 94 3d 53 ee e3 bd ac 8f 15 bd
       -0.10041964 0.07259886 -0.11129441 -0.03651397
000370 ff 5c 40 be 02 b9 19 3d c0 af a8 ba 8e 38 0a bd
       -0.18785475 0.037529953 -0.001286976 -0.03374534
000380 b8 b4 14 3d 4c ad 22 bd 32 00 87 bd 20 03 79 3e
       0.03630516 -0.03971605 -0.06591834 0.24317598
000390 d4 27 70 3e 49 ce a7 3d 54 f4 c5 3c 3b b1 7b bd
       0.23452693 0.08193643 0.024164356 -0.061448317
0003a0 62 ca e8 3d 77 9b 2e 3d 51 bd 6d be 2d b8 49 bd
       0.113667265 0.04262873 -0.2321675 -0.04924791
0003b0 6c 66 5e bd bd 35 9f 3d 27 43 cf bc 8c 3c 58 bc
       -0.054296896 0.07773922 -0.025300575 -0.013198029
0003c0 45 ba 39 3d 61 9a 1f 3c 6d 95 91 3e 4c 2d c7 3d
       0.045343656 0.009741397 0.28434315 0.097254366
0003d0 cf d4 42 3d 4a 0d 03 be 9d 32 6a bd 92 e7 58 be
       0.04756623 -0.12798038 -0.057177175 -0.21182087
0003e0 9d c7 f8 bd 27 69 6e be 3e cd 49 bd 8f 1c 48 be
       -0.12147448 -0.232823 -0.049268 -0.19542144
0003f0 44 ba 16 3e 35 4c 04 3e 82 fa 57 bd 3a 90 6e bb
       0.14719492 0.12919696 -0.052729137 -0.0036401884

fc3.bias f4 [10]
000000 33 01 46 bd 6f 91 f0 bc 4a 51 bf 3d 7f 90 a9 bd
       -0.048340987 -0.029366223 0.093416765 -0.082795136
000010 6e b3 77 3c 87 86 16 bd 0a 63 22 bd 2a 55 49 bd
       0.015118463 -0.03674939 -0.039645232 -0.049153484
000020 5b 64 59 3d ad c6 78 bc
       0.053074222 -0.015184087
